locomotion_nn.pth (torch, 838426 bytes, 6 tensors)

fc1.bias f4 [512]
0	0xbd97404a	-0.07385309
1	0x3c42c5be	0.011887966
2	0xbb836831	-0.0040102233
3	0x3c351da5	0.011054431
4	0x3d777c0b	0.06042103
5	0x3e0bd504	0.13655478
6	0x3d9e46a0	0.077283144
7	0x3d721169	0.059098635
8	0xbc68dac1	-0.014212311
9	0x3cdd9128	0.027046755
10	0x3b8ca408	0.004292015
11	0xbca4ab5b	-0.02010124
12	0x3d02f10b	0.031968158
13	0xbd01d0cb	-0.03169326
14	0xbd38a171	-0.045075838
15	0x3a838eeb	0.00100371
16	0xbd9566d2	-0.07295002
17	0x3cfabe10	0.030608207
18	0x3e0e5ffd	0.13903804
19	0x3da34b06	0.07973294
20	0xbdab5073	-0.08364954
21	0x3c50cd70	0.012744293
22	0x3db1d5b9	0.086833425
23	0xbb8df6fc	-0.0043324213
24	0xbd680c3e	-0.0566523
25	0x3c31e5b4	0.010857988
26	0xbcb4a489	-0.022051113
27	0x3d25f5ee	0.04051774
28	0x3d0cb440	0.034351587
29	0xbd11e2c0	-0.035616636
30	0xbca4d0ee	-0.020119157
31	0xbd271b10	-0.040797293
32	0x3cf87aef	0.030332057
33	0x3bc3e985	0.0059787654
34	0x3ce51bb7	0.027967317
35	0xbd4bdd77	-0.049771752
36	0x3d851839	0.06498761
37	0x3d803296	0.062596485
38	0xbe45e1d8	-0.19324434
39	0x3e3d9260	0.18512869
40	0xbd1f507e	-0.038895123
41	0xbc8f90ee	-0.017525163
42	0x3d846b3b	0.06465765
43	0xbdbc62e2	-0.09198548
44	0xbd92434f	-0.07141744
45	0x3d8a8ff1	0.06765736
46	0xbce07461	-0.027399244
47	0xbd54dbd9	-0.051967476
48	0x3eb2c54e	0.34916157
49	0xbd869684	-0.06571677
50	0x3da2b576	0.07944767
51	0x3e12bf72	0.14330843
52	0x3cdc1219	0.026864098
53	0xbdd4bb13	-0.10387244
54	0x3db7e81f	0.089798205
55	0x3d74d5d5	0.05977424
56	0x3d9d66d5	0.07685629
57	0x3e21835c	0.15772766
58	0x3d7ef47c	0.062244877
59	0xbc79d352	-0.015248137
60	0xbc8a4882	-0.016880278
61	0x3da9b43d	0.08286331
62	0x3c33a2b7	0.010964087
63	0x3ce64374	0.028108336
64	0xbd61e8c4	-0.055153623
65	0x3e0eb863	0.13937525
66	0x3ba9359f	0.005163863
67	0x3ca46690	0.020068437
68	0xbb71142d	-0.0036785707
69	0x3cc3c698	0.023898408
70	0x3d1485d7	0.036260452
71	0xbd6a69f6	-0.05722996
72	0x3c9c57c7	0.019084824
73	0xbd501ff4	-0.050811723
74	0x3c0ef4eb	0.008725385
75	0x3db9e99c	0.090777606
76	0x3cf1a4ad	0.029497469
77	0x3d305dc0	0.043058157
78	0x3d748408	0.059696227
79	0x3d885ad1	0.06657947
80	0xbce30263	-0.027711099
81	0xbc8908fc	-0.016727917
82	0x3e091342	0.13386253
83	0x3cb655dc	0.022257738
84	0xbd7db8a7	-0.061943676
85	0xbd91203d	-0.07086227
86	0xbd8439f9	-0.0645637
87	0x3dabba7b	0.08385178
88	0x3ceacf82	0.0286634
89	0x3d8b8733	0.068128966
90	0x3d6f33dc	0.058399066
91	0x3c3604f9	0.011109584
92	0x3ad7acb4	0.0016454668
93	0x3db0b9d0	0.08629191
94	0x3cf2b586	0.029627573
95	0x3cd7452e	0.026278105
96	0xbdd584aa	-0.10425694
97	0xbdf7e1dc	-0.12103626
98	0x3e23cb97	0.15995632
99	0x3d381993	0.044946264
100	0xbda565aa	-0.080760315
101	0xbe3fffda	-0.18749943
102	0x3dedbba3	0.116080545
103	0xbef3745b	-0.4754971
104	0xbb42fb75	-0.002975193
105	0x3c5faa9c	0.013651516
106	0xbdb53d4a	-0.088495806
107	0x3ceafb45	0.028684268
108	0xbe1c2585	-0.15248688
109	0x3d3590bb	0.04432748
110	0x3e175db5	0.1478184
111	0xbd60dde6	-0.05489912
112	0x3c480062	0.0122071225
113	0x3cae2267	0.021256639
114	0x3ddf9733	0.10917511
115	0xbcbebbc8	-0.0232829
116	0x3d0aaae8	0.033854395
117	0x3d42366c	0.047415182
118	0x3e41a8a9	0.18911995
119	0x3cb10e63	0.021613305
120	0xbc6734a6	-0.014111673
121	0x3e2e98a9	0.17050423
122	0x3dda9673	0.10673227
123	0xbde90c76	-0.1137933
124	0xbce7a0af	-0.028274862
125	0xbdaaf906	-0.08348279
126	0xbc7d96be	-0.015477834
127	0x3cfa350e	0.030542877
128	0x3c6fc805	0.014635091
129	0xbd449fad	-0.04800384
130	0x3c959c22	0.018262926
131	0x3dff6380	0.1247015
132	0xbdace283	-0.08441641
133	0x3df80a83	0.1211138
134	0xbc1d3c5e	-0.009596912
135	0x3c549b44	0.012976471
136	0x3d9f9b91	0.07793344
137	0xbe4163f3	-0.18885784
138	0xbc8797a2	-0.016551796
139	0x3d307fe2	0.04309071
140	0x3d7a7a6a	0.0611519
141	0x3a3c7a62	0.00071898673
142	0xbd7c75cd	-0.06163578
143	0xbb9ed2a6	-0.0048468886
144	0xbe0dda87	-0.13852893
145	0x3e26aa81	0.1627598
146	0x3c5941b3	0.013260293
147	0xbe063cac	-0.13109082
148	0xbd20cad7	-0.039255943
149	0x3d44c432	0.04803867
150	0x3cdf2c50	0.02724281
151	0xbca9a396	-0.020707887
152	0x3d039c28	0.032131344
153	0x3e55e23b	0.20887081
154	0x3e5d93ac	0.21638364
155	0x3cab593c	0.020916574
156	0x3e187498	0.14888227
157	0x3c51ff6b	0.012817244
158	0xbcff5314	-0.031167544
159	0x3cd584de	0.026064333
160	0xbd680eda	-0.05665479
161	0xbb369fdd	-0.0027866282
162	0xbc920d8c	-0.017828725
163	0xbc5cdbc5	-0.0134801315
164	0x3e0e9224	0.13922936
165	0xbd927124	-0.07150486
166	0xbd1c8ee1	-0.038222197
167	0x3bc0f349	0.005888377
168	0x3d9fbbb5	0.07799474
169	0xbd8b51a7	-0.06802683
170	0x3e7e2816	0.24819979
171	0x3dac4604	0.08411792
172	0x3d9a51bc	0.07535121
173	0x3e36ec70	0.17863631
174	0xbdbe815f	-0.09302019
175	0x3dc27713	0.09495368
176	0x3dc9720c	0.09836206
177	0x3e109e93	0.14122991
178	0x3d641ac1	0.055689577
179	0xbb50eb68	-0.0031878594
180	0x3ce9eeca	0.028556246
181	0x3ced205d	0.028946096
182	0x3d5f84ec	0.054570124
183	0xbe280c23	-0.1641088
184	0xbc9def3e	-0.019279119
185	0x3e0ab4a4	0.13545471
186	0x3e12f998	0.14353025
187	0xbd4f693d	-0.050637472
188	0xbb46f986	-0.003036113
189	0x3c20951e	0.009801177
190	0xbd45790f	-0.048211154
191	0xbae906d0	-0.001777852
192	0x3c9d6619	0.019213723
193	0x3cecd02e	0.028907862
194	0xbcd286f9	-0.025699126
195	0xbd9f1171	-0.077669986
196	0x3d871f07	0.06597715
197	0xbc9adf08	-0.018905178
198	0x3bca258a	0.006169026
199	0x3e087b06	0.1332818
200	0xbcf523e2	-0.029924337
201	0xbdf34019	-0.1187746
202	0xbd8a1016	-0.067413494
203	0xbd0c4da8	-0.034253746
204	0x3ed1d26f	0.4098086
205	0xbd92209c	-0.07135126
206	0x3cf31923	0.029675072
207	0x3c5bece9	0.013423183
208	0xbcbc56a2	-0.022990528
209	0x3d531d03	0.05154134
210	0xbdbfea60	-0.09370875
211	0xbc7ac927	-0.0153067475
212	0xbd84525c	-0.06461021
213	0x3d02de37	0.0319502
214	0xbb2e3a97	-0.0026585215
215	0xbc40cae0	-0.011767119
216	0x3be32def	0.006932966
217	0x3c8f2469	0.017473416
218	0xbd86373f	-0.06553506
219	0xbd0a746a	-0.033802427
220	0x3e3100b2	0.17285421
221	0x3e31a1f6	0.1734694
222	0x3daf6f3e	0.0856614
223	0xbb2b5515	-0.0026143242
224	0x3cbcc4ae	0.023043003
225	0x3d805c18	0.062675655
226	0x3dbf45ec	0.093395084
227	0xbdebced8	-0.11514062
228	0x3d404f0a	0.046950378
229	0xbdbc80d9	-0.09204263
230	0xbe0fabc6	-0.1403037
231	0x3e73eaea	0.23820081
232	0x3d201bfa	0.03908918
233	0x3e6e2ec9	0.23260035
234	0xbc49da94	-0.0123201795
235	0x3d8af171	0.067843325
236	0x3d24b61b	0.04021273
237	0x3e464f7e	0.19366261
238	0x3dc98351	0.098395
239	0x3d4996cf	0.049216088
240	0x3c169ac3	0.0091921715
241	0xbd2640ad	-0.040589023
242	0x3da25bd3	0.0792767
243	0x3db46716	0.088087246
244	0x3d0dc9c9	0.034616265
245	0xbcc21b19	-0.023694562
246	0xbd3fe77b	-0.046851616
247	0x3b2e67c8	0.0026612151
248	0x3d1e5793	0.038657736
249	0x3d8fd1f8	0.0702247
250	0x3e42a5ca	0.19008556
251	0xbd8f91af	-0.07010209
252	0xbd92ef62	-0.07174565
253	0x3e496ef9	0.19671239
254	0x3d91b9b7	0.071155004
255	0x3e02be15	0.12767823

fc2.bias f4 [256]
0	0xbda132ce	-0.07871018
1	0xbe239bd0	-0.15977407
2	0xbd47b55b	-0.04875694
3	0xbd9ef52b	-0.07761606
4	0xbda7cd18	-0.081934154
5	0xbddd2fbb	-0.108001195
6	0xbd7cfb73	-0.06176324
7	0xbe30bf99	-0.17260589
8	0xba022c9d	-0.00049657543
9	0xbbd2a44c	-0.006428277
10	0x3c81b072	0.015831206
11	0xbdecf5ed	-0.11570344
12	0x3dbd0333	0.09229126
13	0xbd99997e	-0.074999794
14	0xbc85b8d6	-0.016323488
15	0xbdab411a	-0.083620265
16	0xbde247dd	-0.11048863
17	0xbd7332a5	-0.05937447
18	0xbe2678a7	-0.16256963
19	0xbd62ba62	-0.05535353
20	0xbe53de40	-0.2069025
21	0xbe3c8256	-0.18409094
22	0xbe3cfbe3	-0.18455462
23	0xbf23e78e	-0.640252
24	0x3cc3a76a	0.02388354
25	0xbe3e5601	-0.18587495
26	0xbdf54a9c	-0.11977121
27	0xbd8e69e3	-0.0695379
28	0xbea895d1	-0.329268
29	0xbf0f8b4f	-0.56071943
30	0xbe4f87fe	-0.2026672
31	0xbdb044b4	-0.08606854
32	0xbd0e8b20	-0.03480065
33	0xbe541260	-0.20710135
34	0xbe79a90a	-0.2438089
35	0xbe309375	-0.1724375
36	0xbdf3a5af	-0.11896836
37	0xbe41d12b	-0.18927447
38	0xbe119aab	-0.14219157
39	0xbd87c99a	-0.06630249
40	0xbe75b6ce	-0.23995516
41	0xbe18db37	-0.14927374
42	0xbe3ac5ba	-0.18239489
43	0xbf1b1a3f	-0.60586923
44	0xbe528def	-0.20561956
45	0xbe148c42	-0.14506629
46	0xbd734ca6	-0.05939927
47	0xbe493e5c	-0.19652694
48	0xbe43a5e2	-0.19106248
49	0xbe9c9895	-0.3058516
50	0xbc8258d5	-0.015911499
51	0xbe8e54f8	-0.277992
52	0xbd05727e	-0.03257989
53	0x3bea3c5f	0.00714831
54	0x3cb285d9	0.02179234
55	0xbeb39ab9	-0.35078982
56	0xbe1c9b3e	-0.15293595
57	0xbe223eb7	-0.15844236
58	0xbe28c30f	-0.16480659
59	0xbdb3b517	-0.087747745
60	0xbda194b0	-0.07889688
61	0xbe1748bf	-0.14773844
62	0xbe6d58f6	-0.23178467
63	0xbdf669b9	-0.12031884
64	0xbe1f53cf	-0.15559314
65	0xbe405248	-0.18781388
66	0xbe15bffb	-0.14624016
67	0xbd4e4ada	-0.050364353
68	0xbe4894be	-0.1958799
69	0x3b9b25c6	0.0047347276
70	0xbd7e2e09	-0.06205562
71	0xbe134b7b	-0.14384262
72	0xbe98656d	-0.29764882
73	0xbe3f5ad3	-0.1868699
74	0xbceeea64	-0.0291645
75	0x395d583c	0.00021109072
76	0xbde75365	-0.11295203
77	0xbe94e736	-0.2908265
78	0xbe6c0068	-0.2304703
79	0xbd8c3e97	-0.068478756
80	0xbda0cd57	-0.078516655
81	0xbdc466c3	-0.09589913
82	0xbe2ed6be	-0.17074105
83	0x3d30aca9	0.04313341
84	0xbe4d637f	-0.20057486
85	0x3c01ecc5	0.007929985
86	0xbda1a514	-0.07892814
87	0x3d446220	0.04794514
88	0xbe8d1df4	-0.27561915
89	0xbdf92bc5	-0.121665515
90	0xbe1552d2	-0.14582375
91	0xbc2920ba	-0.010322744
92	0xbe3e66b0	-0.1859386
93	0xbe90c5ab	-0.2827581
94	0xbde4a430	-0.11164129
95	0xbde65ec5	-0.112485446
96	0xbebc7f49	-0.3681586
97	0xbf0bcf0c	-0.54612803
98	0xbeae9561	-0.34098342
99	0xbdcabce3	-0.098993085
100	0xbdcd4fc0	-0.10024977
101	0xbe1d450d	-0.15358372
102	0xbe56f5fb	-0.20992272
103	0xbe9089f0	-0.28230238
104	0xbdd82c72	-0.10555352
105	0xbe83834f	-0.25686118
106	0xbe225e21	-0.1585622
107	0xbc2580a8	-0.010101475
108	0xbec3caa1	-0.3824053
109	0xbe8ae56a	-0.27128154
110	0xbdc0ea4e	-0.0941969
111	0xbe4003aa	-0.18751398
112	0xbd8682fc	-0.06567952
113	0xbdc1e390	-0.09467232
114	0xbe067c07	-0.1313325
115	0xbe65375e	-0.22384402
116	0xbda7b1e3	-0.08188226
117	0xbdc55f75	-0.096373476
118	0xbe243b23	-0.16038184
119	0xbe90d7f5	-0.28289762
120	0xbdb57673	-0.08860483
121	0xbe49775a	-0.19674435
122	0x3bb7d92f	0.005610607
123	0x3bb798d4	0.0056029353
124	0xbced8b24	-0.028997011
125	0xbdc59105	-0.09646801
126	0xbe85b7d1	-0.26116803
127	0xbdfeade0	-0.12435508
128	0xbe48b50d	-0.19600315
129	0x3b782613	0.003786449
130	0xbe5397f4	-0.20663434
131	0xbe0f5232	-0.13996199
132	0xbf17c230	-0.5928068
133	0xbee39320	-0.44448185
134	0xbe1e4758	-0.15456903
135	0xbd8e509e	-0.0694897
136	0xbd5c37b1	-0.05376405
137	0xbdabd517	-0.08390253
138	0xbea0c49d	-0.31400004
139	0xbdf324da	-0.11872263
140	0xbea3826f	-0.3193545
141	0xbe4e1827	-0.20126401
142	0xbe0bc459	-0.1364912
143	0xbcb9a49e	-0.022661503
144	0x3ca027f2	0.019550297
145	0xbdfbdece	-0.12298356
146	0xbd25240d	-0.040317584
147	0xbe9636ad	-0.2933859
148	0xbe9fbceb	-0.3119882
149	0xbebf23e9	-0.37332085
150	0xbe49b881	-0.19699289
151	0xbec9c951	-0.39411405
152	0xbe224e1d	-0.1585011
153	0xbe6e21ba	-0.23255053
154	0xbe50c643	-0.20388131
155	0xbc1af353	-0.009457427
156	0xbe7ffdc6	-0.2499915
157	0xbd8fcc42	-0.07021381
158	0xbda7d799	-0.08195419
159	0xbe878489	-0.26468304
160	0xbe150cb8	-0.14555633
161	0xbd932be0	-0.07186103
162	0xbe4fb95b	-0.20285551
163	0xbe79271a	-0.24331322
164	0xbe72a112	-0.23694256
165	0xbdb5bc41	-0.08873797
166	0xbd8e7882	-0.06956579
167	0xbd1b1fff	-0.03787231
168	0xbe8ece6d	-0.27891865
169	0xbd26aa54	-0.04068978
170	0xbcb1d9ea	-0.021710355
171	0xbe2703a1	-0.16309978
172	0xbdfbad30	-0.12288892
173	0xbe221c42	-0.15831092
174	0xbda684b5	-0.081307806
175	0xbde2cdf0	-0.11074436
176	0xbdc8d754	-0.098066956
177	0xbcd495b4	-0.02595029
178	0xbd69cd52	-0.057080574
179	0xbe5d1e4c	-0.21593589
180	0xbe649920	-0.22324038
181	0xbcf513a3	-0.02991659
182	0x3d8ae25d	0.067814566
183	0xbecbb944	-0.39789784
184	0xbd2076b6	-0.03917571
185	0xbe2f2acb	-0.17106168
186	0xbdd9a451	-0.10627044
187	0xbda5eb52	-0.081015244
188	0xbddea7a2	-0.10871817
189	0xbe14ec59	-0.14543284
190	0xbe0ac867	-0.1355301
191	0xbdcf5355	-0.10123316
192	0xbe047105	-0.12933739
193	0xbeee3257	-0.4652278
194	0xbd317000	-0.043319702
195	0xbe23d131	-0.15997769
196	0xbd999a51	-0.07500137
197	0xbeaaef3e	-0.33385652
198	0xbdb53482	-0.08847906
199	0xbe51a7a2	-0.20474103
200	0xbe637bfc	-0.22215265
201	0xbdba802a	-0.091064766
202	0xbe395511	-0.18098857
203	0xbe3b2f9b	-0.18279879
204	0xbe84ad82	-0.25913626
205	0xbd5fbe6c	-0.05462496
206	0xbd7b41d7	-0.061342087
207	0xbdf823e2	-0.12116219
208	0xbe5f4d04	-0.21806723
209	0xbea3daaa	-0.32002765
210	0xbeb29c31	-0.3488479
211	0xbe926bbb	-0.28597817
212	0xbdcdcc71	-0.1004876
213	0xbda05b44	-0.078299075
214	0xbe6967dd	-0.22793527
215	0xbcb9aca5	-0.022665331
216	0xbd8e9d9e	-0.06963657
217	0xbe164491	-0.14674594
218	0xbeb06123	-0.3444911
219	0xbe24505f	-0.16046284
220	0xbed6fe0f	-0.41990706
221	0xbd9f81bd	-0.077884175
222	0xbd8c1cab	-0.068414055
223	0xbe0ecf15	-0.13946183
224	0xbe17c443	-0.14820962
225	0xbe84e0b8	-0.25952697
226	0xbd9c1162	-0.07620503
227	0xbdb2bca2	-0.08727385
228	0x3d576155	0.052583057
229	0xbd8fbbd0	-0.07018244
230	0xbe3a0a42	-0.18167976
231	0xbe5162bb	-0.20447819
232	0xbe431867	-0.19052278
233	0xbed17fe9	-0.409179
234	0xbb676d5b	-0.0035312984
235	0xbe71c98a	-0.23612037
236	0xbe579bdb	-0.21055548
237	0xbe4a6452	-0.19764832
238	0xbe128ecb	-0.14312284
239	0xbe4b47d7	-0.19851623
240	0xbdece8bc	-0.11567828
241	0xbe947e11	-0.2900243
242	0x3d6d2709	0.057898555
243	0xbd88b392	-0.06674875
244	0xbd5e7bc4	-0.05431725
245	0xbe31351c	-0.17305416
246	0xbee7fef5	-0.45311704
247	0xbe4b3610	-0.19844842
248	0xbda4f32e	-0.08054195
249	0xbe0013da	-0.12507573
250	0xbe4d30b8	-0.20038116
251	0xbe50530c	-0.2034418
252	0x3e1ba751	0.15200545
253	0xbe6d217a	-0.23157302
254	0xbe4eaa7b	-0.2018222
255	0xbe023a47	-0.12717544

fc3.bias f4 [128]
0	0xbe2920a4	-0.16516358
1	0xbe23dd43	-0.16002373
2	0xbe9042f3	-0.28176078
3	0xbdd999d0	-0.106250405
4	0xbe3e7500	-0.1859932
5	0xbe5bb10b	-0.21454255
6	0xbe459ff1	-0.19299294
7	0xbe2457f6	-0.1604918
8	0xbe3485bb	-0.17629139
9	0xbe049cd1	-0.12950446
10	0xbddf1bc6	-0.10893969
11	0xbde05890	-0.10954392
12	0xbe182f86	-0.14861879
13	0xbe2e9853	-0.17050295
14	0xbd504bd0	-0.05085355
15	0xbdf65b89	-0.12029178
16	0xbdd29bf5	-0.10283653
17	0xbe1dca48	-0.15409195
18	0xbd6b72fe	-0.057482712
19	0xbe070300	-0.13184738
20	0xbe10b2df	-0.14130734
21	0xbc824d96	-0.015906136
22	0xbdc6811d	-0.09692595
23	0xbe84c82e	-0.25933975
24	0xbdf78838	-0.120865285
25	0xbe21c4bf	-0.15797709
26	0xbe0d9b7f	-0.13828848
27	0xbe0c63e6	-0.13709983
28	0xbe1e09b9	-0.15433396
29	0xbe7deffb	-0.24798577
30	0xbe3a09e1	-0.18167831
31	0xbe238949	-0.15970339
32	0xbe1a72d6	-0.15082869
33	0xbd232cef	-0.039837774
34	0xbd8ff764	-0.07029608
35	0xbe1cfb71	-0.15330292
36	0xbe145550	-0.14485669
37	0xbdd467dd	-0.10371373
38	0xbe0fe7ce	-0.1405327
39	0xbdac9cb3	-0.084283255
40	0xbe4ea909	-0.2018167
41	0xbca68d07	-0.020330919
42	0xbdc0e95d	-0.094195105
43	0xbe133dd9	-0.14379062
44	0xbd64a49e	-0.055821054
45	0xbe7a12e4	-0.24421269
46	0xbdd7371e	-0.1050856
47	0xbe385d09	-0.1800424
48	0xbdb5c4e1	-0.08875442
49	0xbfa03229	-1.2515308
50	0xbdb5027f	-0.08838367
51	0xbe536354	-0.2064336
52	0xbe0227ac	-0.12710446
53	0xbf607a30	-0.87686443
54	0xbe03d364	-0.12873608
55	0xbe30dc5b	-0.17271559
56	0xbe66d278	-0.22541225
57	0xbdf646fd	-0.12025259
58	0xbe8febd3	-0.28109607
59	0xbe3215a2	-0.17391065
60	0xbf5ad870	-0.8548651
61	0xbe29758b	-0.16548745
62	0xbe153e5b	-0.14574568
63	0xbdaa41dd	-0.08313344
64	0xbe6d6084	-0.23181349
65	0xbe12bb3a	-0.14329234
66	0xbe3fe072	-0.18737963
67	0xbdb5a9fc	-0.088703126
68	0xbe56f74d	-0.20992775
69	0xbe3f7946	-0.18698606
70	0xbe9a5607	-0.3014376
71	0xbdb625c8	-0.08893925
72	0xbe0a3771	-0.13497712
73	0xbe949f80	-0.2902794
74	0xbd3f5f42	-0.046721704
75	0xbefe5138	-0.4967134
76	0xbdb446c7	-0.08802562
77	0xbf12173c	-0.570667
78	0xbda4027b	-0.080082856
79	0xbccb3458	-0.024805233
80	0xbd833522	-0.06406619
81	0xbe3615ed	-0.17781802
82	0xbd40b290	-0.04704529
83	0xbddc5242	-0.10757877
84	0xbeb27c3a	-0.34860402
85	0xbd9779f8	-0.073963106
86	0xbde75118	-0.11294764
87	0xbe6de8a6	-0.2323328
88	0xbe077503	-0.1322823
89	0xbe3aeb3e	-0.182538
90	0xbe48458d	-0.19557782
91	0x3d40e723	0.04709543
92	0xbe308ae5	-0.17240484
93	0xbe41b54f	-0.1891682
94	0xbe8d7b96	-0.2763335
95	0xbe41ec54	-0.18937808
96	0xbe416d4a	-0.18889347
97	0xbdf7d5db	-0.121013366
98	0xbe0729c3	-0.13199525
99	0xbf0988de	-0.5372447
100	0xbe6b23a9	-0.22962822
101	0xbe17e534	-0.14833528
102	0xbe548d59	-0.20757045
103	0x3e14697e	0.14493367
104	0xbe6e3d8b	-0.23265664
105	0xbebd6830	-0.3699355
106	0xbe14d403	-0.14534001
107	0xbde71275	-0.11282817
108	0xbe3c4489	-0.18385519
109	0xbe0ee5a3	-0.13954787
110	0xbcda1b72	-0.026624415
111	0xbe075968	-0.132177
112	0xbd91dd1b	-0.07122251
113	0xbe166aa3	-0.14689116
114	0xbdb0ac91	-0.086266644
115	0xbe424742	-0.18972495
116	0xbe8ae35a	-0.2712658
117	0xbd978e9d	-0.07400248
118	0xbe1b1480	-0.15144539
119	0xbd2226d3	-0.039587807
120	0xbf09c062	-0.5380918
121	0xbe4be69d	-0.1991219
122	0x3d363ec5	0.044493455
123	0xbd9dcde0	-0.07705283
124	0xbe002c58	-0.12516916
125	0xbe86a8a1	-0.2630053
126	0xbde8f67d	-0.11375139
127	0xbe4c3a23	-0.19944052

fc4.bias f4 [23]
0	0xbd34cac1	-0.044138674
1	0x3d439486	0.047749065
2	0x3c77228e	0.015083922
3	0x3ca28b6c	0.019841872
4	0x3cb26094	0.021774568
5	0x3afca407	0.0019274958
6	0xbdc8c1bb	-0.09802576
7	0x3ba124f8	0.004917737
8	0x3b310655	0.002701183
9	0x3d05fa52	0.032709427
10	0xbd13f5b5	-0.036122996
11	0xbde00979	-0.10939307
12	0xbda54275	-0.08069316
13	0xbdec856d	-0.115488864
14	0xbebda340	-0.37038612
15	0x3d247e5a	0.04015956
16	0xbe8bb2b6	-0.27284783
17	0x3cf7970d	0.030223394
18	0x3e259f55	0.16174062
19	0x3e396513	0.18104963
20	0x3ea38afa	0.31941968
21	0xbdd9d8d7	-0.10637062
22	0x3e9b3d24	0.30320084

layer_norm.weight f4 [512]
0	0x3fceb58b	1.6149153
1	0x3fc0676a	1.503156
2	0x3fb21ec6	1.3915641
3	0x3f29ac57	0.66278595
4	0x3e342b66	0.1759468
5	0x3e0b5e61	0.13610221
6	0x3cf39dc1	0.029738309
7	0x3e84d098	0.25940394
8	0x3fa8b66e	1.3180673
9	0x3ec6db4b	0.38839182
10	0x3eda3c63	0.42624196
11	0x3f997569	1.1988956
12	0x3ea6e331	0.32595208
13	0x3f9d54e1	1.2291528
14	0x3fbaf88b	1.4607099
15	0x3f87ff9a	1.0624878
16	0x3fc1ed4e	1.5150545
17	0x3f8636bd	1.0485455
18	0x3f7aec2e	0.9801663
19	0x3ec61c9d	0.38693705
20	0x3fca4ec8	1.5805292
21	0x3f389170	0.7209692
22	0x3f6120d7	0.87940735
23	0x3ffc8429	1.9727832
24	0x3f7650c1	0.9621697
25	0x3fe612ee	1.7974527
26	0x3f89097b	1.0706018
27	0x3fd95424	1.6978803
28	0x3f29f55d	0.6639002
29	0x3fa93b91	1.3221303
30	0x3f03d836	0.51501787
31	0x3fe6a4f7	1.8019093
32	0x4002dfa7	2.0449007
33	0x3fd4fe34	1.6640077
34	0x3f39311f	0.7234058
35	0x3fa0ae5c	1.255321
36	0x3e496887	0.1966878
37	0x3ead4b83	0.33846673
38	0xb75d4bf3	-1.319031e-05
39	0x3dfc55af	0.1232103
40	0x3fa9b84b	1.3259367
41	0x3fa62992	1.2981436
42	0x3e6d56e8	0.23177683
43	0x3fe35b64	1.7762265
44	0x3fb070c3	1.3784412
45	0x3eb5154f	0.3536782
46	0x3f464edd	0.77464086
47	0x3f46dde9	0.7768236
48	0x3e3ab641	0.18233587
49	0x3f977631	1.1832944
50	0x3f20220d	0.6255196
51	0x3ebb3ac5	0.36568275
52	0x3f3b7278	0.7322154
53	0x4010d686	2.2630935
54	0x3e8ea1db	0.2785786
55	0x3f23d8dc	0.64002776
56	0x3bdec14b	0.0067979447
57	0x3f496ece	0.786847
58	0x3f3885cf	0.72079176
59	0x3fa8e8f2	1.3196089
60	0x3faa0661	1.3283197
61	0x3e40b360	0.18818426
62	0x3f1d7434	0.61505437
63	0x3f5549c1	0.83315665
64	0x3f8d7c69	1.1053592
65	0x3e6ea76e	0.23306057
66	0x3f692f81	0.9108811
67	0x3fb493d4	1.4107614
68	0x3faf12e2	1.3677638
69	0x3f842a7d	1.0325466
70	0x3fbcc5d1	1.4747869
71	0x3fa91556	1.3209636
72	0x3fc62e25	1.5482832
73	0x40361664	2.8451166
74	0x3edb868a	0.42876083
75	0x3f4be370	0.7964392
76	0x3e8b74b1	0.27237466
77	0x3f8fd9b6	1.1238315
78	0x3e8c9944	0.27460682
79	0x3eb0fd8a	0.34568435
80	0x3fb901ea	1.4453709
81	0x3f9909e1	1.195614
82	0x3e704864	0.23465115
83	0x3fab5367	1.3384827
84	0x3f99e06f	1.2021617
85	0x3ff569c0	1.9172897
86	0x3f953476	1.1656635
87	0x3e5a2a1c	0.21305126
88	0x3f2f1605	0.68392974
89	0x3e68118b	0.22662942
90	0x3e70e2f9	0.23524083
91	0x3fa567c8	1.2922297
92	0x3fb7282c	1.4309134
93	0x3f0c2808	0.5474858
94	0x3f5b29fa	0.85610926
95	0x3f26dfd1	0.65185267
96	0x3fe071f8	1.753478
97	0x3f8b6865	1.0891234
98	0x3e8fe903	0.2810746
99	0x3f823324	1.0171857
100	0x3fa10764	1.258038
101	0x3fde4239	1.736396
102	0x3ea7edd5	0.3279864
103	0x3fe8aad5	1.8177134
104	0x3f85dd02	1.0458071
105	0x3f020a15	0.50796634
106	0x3fb96998	1.448535
107	0x3f4c0c22	0.79706013
108	0x3fec4f17	1.8461636
109	0x3fa10d68	1.2582216
110	0x3eb33231	0.3499923
111	0x3f96f009	1.1792003
112	0x3ea95b8c	0.33077657
113	0x3f497ade	0.78703105
114	0x3eacc052	0.3374048
115	0x3fd42c8a	1.6576092
116	0x3f1aa334	0.6040528
117	0x3f412f1a	0.75462496
118	0x3ec9f3f3	0.3944393
119	0x3fa0f369	1.2574283
120	0x3ec7e2e9	0.39040306
121	0x3e0b6d6d	0.13615961
122	0x3e877d7c	0.26462924
123	0x3fe65cc8	1.7997065
124	0x40249505	2.5715954
125	0x4011f8aa	2.2808022
126	0x3fa2cc80	1.2718658
127	0x3e5aaf77	0.21355997
128	0x3f948889	1.1604167
129	0x3fa1bf18	1.2636442
130	0x4000c579	2.0120528
131	0x3e15ef6c	0.14642113
132	0x3fda5712	1.7057822
133	0x3f511ec2	0.8168756
134	0x3fab1ef5	1.3368822
135	0x3f587746	0.84556997
136	0x3e30cb1e	0.17264983
137	0x40320a70	2.781887
138	0x3f848879	1.0354148
139	0x3f616907	0.88050884
140	0x3f28b47e	0.6590041
141	0x3f83ea1d	1.0305821
142	0x3fbeac3d	1.4896313
143	0x3fd7ed4e	1.6869295
144	0x40048da4	2.071145
145	0x3dda7e96	0.106686756
146	0x3f870435	1.0548159
147	0x3fd95a39	1.6980659
148	0x3f36d27e	0.71414936
149	0x3ec44caa	0.3833974
150	0x3f99e16f	1.2021922
151	0x3f806b30	1.0032711
152	0x3ee5e392	0.44900185
153	0x3e610949	0.21976198
154	0x3e4e6e50	0.20159268
155	0x3f934137	1.1504277
156	0x3c6a56aa	0.014302889
157	0x3eb65a80	0.3561592
158	0x3efa9b57	0.4894664
159	0x3f65553d	0.8958319
160	0x3f71e684	0.94492364
161	0x3fa75f0f	1.3075885
162	0x3f72244e	0.94586647
163	0x3fad8e2e	1.3559015
164	0x3ecfe269	0.40602425
165	0x3fb6b1fa	1.4273064
166	0x3fa482cd	1.2852417
167	0x3f4bb804	0.7957766
168	0x3f6b1d6f	0.9184179
169	0x3fc13cdc	1.5096698
170	0x3e641823	0.22274832
171	0x3f2b803a	0.66992533
172	0x3f946ee3	1.159634
173	0x3e6d9317	0.23200642
174	0x3fd3c8bb	1.6545633
175	0x3dd7db29	0.10539848
176	0x3ea3899d	0.31940928
177	0x3e79f265	0.24408872
178	0x3e61d30b	0.22053163
179	0x3fa88164	1.3164487
180	0x3f696fd1	0.91186243
181	0x3e8ab59e	0.27091688
182	0x3ea12106	0.31470507
183	0x3fe34afe	1.7757261
184	0x40028c49	2.0398123
185	0x3e551acc	0.20811003
186	0x3f3b36a3	0.73130244
187	0x3fa1b1a0	1.2632332
188	0x3f812626	1.0089767
189	0x3f2eab53	0.6823017
190	0x3f96ac98	1.1771421
191	0x3f14fe21	0.5820027
192	0x3ed9c8b1	0.42535928
193	0x3f653ad2	0.8954288
194	0x3f38920a	0.7209784
195	0x4004c623	2.0745933
196	0x3e9af517	0.30265114
197	0x3f3d8023	0.74023646
198	0x3f607aa1	0.87687117
199	0x3e8ed3eb	0.27896056
200	0x3fe0ceb1	1.7563077
201	0x3fe3bd82	1.7792208
202	0x3fa4fc5f	1.2889518
203	0x3f9b31de	1.2124593
204	0x3e0b22b7	0.13587461
205	0x3fb78629	1.4337817
206	0x3f59c088	0.85059404
207	0x3fd3d162	1.6548274
208	0x3f96a938	1.1770391
209	0x3d397cc7	0.045285013
210	0x402436b2	2.5658383
211	0x3fa0e319	1.2569305
212	0x40375ae6	2.864923
213	0xbc09e6e5	-0.008416866
214	0x3f923cb2	1.1424773
215	0x3fab5dd1	1.3388005
216	0x3e5609ed	0.20902224
217	0x3b8387c5	0.0040139877
218	0x3f7f753e	0.9978827
219	0x3fc89035	1.5669008
220	0x3e8fcc2b	0.28085455
221	0x3e5405e8	0.20705378
222	0x3e91db25	0.28487507
223	0x3f3a7ff4	0.7285149
224	0x3f627ad3	0.88468665
225	0x3f5b60eb	0.8569476
226	0x3f58d6e1	0.8470288
227	0x3f897efe	1.074188
228	0x3ea900b2	0.33008343
229	0x3f8e2c11	1.1107198
230	0x3fe81f02	1.8134463
231	0x3e96455d	0.29349795
232	0x3e576a2d	0.21036597
233	0x3e358dd5	0.17729886
234	0x40065963	2.0992057
235	0x3e2fa19e	0.17151496
236	0x3fe288b8	1.7697973
237	0x3e7899c9	0.24277414
238	0x3f051063	0.5197813
239	0x3f86fee1	1.0546533
240	0x3f9023a8	1.1260881
241	0x3f9ab15f	1.2085379
242	0x3f612ca3	0.87958735
243	0x3e84c80c	0.25933874
244	0x3ef4b166	0.47791594
245	0x3fcc893c	1.5979381
246	0x3f7e5f48	0.9936414
247	0x3e990533	0.2988678
248	0x3f19a230	0.60013103
249	0x3e6ec87a	0.23318663
250	0x3ec70fbd	0.38879195
251	0x3fdd989d	1.7312199
252	0x3fbae565	1.4601256
253	0x3ecc290a	0.3987506
254	0x3f1cd640	0.6126442
255	0x3e93a9fd	0.28840628

layer_norm.bias f4 [512]
0	0xbe35bae5	-0.17747076
1	0xbd56ce24	-0.052442685
2	0xbe74dc12	-0.23912075
3	0xbe67f15e	-0.22650668
4	0xbe0d0064	-0.1376968
5	0xbde83519	-0.113382526
6	0x3b222e48	0.0024746824
7	0xbe0124f6	-0.12611756
8	0xbe4ecf3d	-0.20196243
9	0xbddf9efc	-0.10918996
10	0x3a986698	0.0011627255
11	0xbda2de59	-0.07952566
12	0xbc9e55ee	-0.019328084
13	0xbe292062	-0.1651626
14	0xbe7b33b1	-0.24531437
15	0xbdd2611f	-0.10272431
16	0xbe3fe9c1	-0.18741514
17	0xbe086750	-0.1332066
18	0xbe4065ac	-0.18788785
19	0xbe62145b	-0.22078077
20	0xbdf92244	-0.12164739
21	0xbd07a0b9	-0.03311226
22	0xbe275638	-0.16341484
23	0xbdb989f8	-0.090595186
24	0xbdf30d37	-0.11867755
25	0xbe290348	-0.16505158
26	0xbe8461db	-0.25855908
27	0xbe08af96	-0.1334823
28	0xbe103136	-0.14081272
29	0xbe49808d	-0.19677944
30	0xbe11b448	-0.14228928
31	0xbcb1e252	-0.021714363
32	0xbdb6c365	-0.08923987
33	0xbd48e276	-0.049044095
34	0xbe27973d	-0.16366287
35	0xbe78cb4b	-0.242963
36	0xbdbec852	-0.09315552
37	0xbdb3833f	-0.087652676
38	0xb81b73b1	-3.7062626e-05
39	0xbdba0f29	-0.09084923
40	0xbe509c9b	-0.2037224
41	0xbe3be4ed	-0.18349047
42	0xbe2c3b9e	-0.16819617
43	0xbe7d5050	-0.24737668
44	0xbe1863f2	-0.14881876
45	0xbda4ffc7	-0.08056598
46	0xbe8f25bb	-0.27958474
47	0xbe99b7b2	-0.3002296
48	0xbef5e790	-0.4802823
49	0xbe33ed35	-0.17570956
50	0xbd170232	-0.036867328
51	0xbe224f6b	-0.15850608
52	0xbe06d396	-0.13166651
53	0xbd9272c5	-0.07150797
54	0xbe0e92b1	-0.13923146
55	0xbe1a8c93	-0.15092687
56	0x3ab4ef67	0.0013804258
57	0xbd73b1e7	-0.059495833
58	0xbe226a48	-0.15860856
59	0xbd6f73b4	-0.058459952
60	0x3c82de48	0.015975133
61	0xbdf3bb83	-0.119009994
62	0xbd838545	-0.064219035
63	0xbe502903	-0.20328145
64	0xbe039335	-0.12849124
65	0xbe41b6ce	-0.1891739
66	0xbdc51f07	-0.096250586
67	0xbe2986fc	-0.16555399
68	0xbdab7a11	-0.08372892
69	0xbe0444dc	-0.12916893
70	0xbdd92bd2	-0.10604061
71	0xbd6f04fa	-0.058354355
72	0xbdc0ceb6	-0.09414427
73	0xbe2ddae7	-0.16978036
74	0xbe4f3893	-0.20236425
75	0xbe1e3985	-0.1545163
76	0xbc3e5960	-0.011617988
77	0xbe5fa292	-0.2183936
78	0xbe7ee85d	-0.24893327
79	0xbe58e982	-0.21182826
80	0xbdf7dc59	-0.12102575
81	0xbe16d380	-0.14729118
82	0xbde3897f	-0.1111021
83	0xbd689ea1	-0.056791905
84	0xbe5bca55	-0.21463902
85	0xbd5c9ff0	-0.053863466
86	0xbd8e7ce9	-0.069574185
87	0xbe447cdb	-0.19188254
88	0xbe09cde1	-0.13457443
89	0xbda45861	-0.080246694
90	0xbdc99356	-0.09842555
91	0xbe1403da	-0.14454594
92	0xbdfe9323	-0.12430408
93	0xbdfef814	-0.12449661
94	0xbd2cfc2c	-0.042232677
95	0xbe99b756	-0.30022687
96	0xbe073a79	-0.132059
97	0xbdbe3710	-0.09287846
98	0xbedb1a17	-0.42793342
99	0xbdd6ad57	-0.10482281
100	0xbe2fb8d0	-0.17160344
101	0xbc0ca0da	-0.008583272
102	0xbed8b72a	-0.42327243
103	0x3f1f360b	0.6219184
104	0xbc9f9204	-0.019478805
105	0xbe619434	-0.22029191
106	0xbe77b86c	-0.24191445
107	0xbd656c47	-0.056011464
108	0xbe152e93	-0.14568548
109	0xbe0781a0	-0.13233042
110	0xbe8f1b7d	-0.2795066
111	0xbdf9f2e4	-0.12204531
112	0xbdf67ed8	-0.12035912
113	0xbdd785f9	-0.105236
114	0xbe5ea564	-0.21742779
115	0xbe1f1d11	-0.15538432
116	0xbe09f68e	-0.1347296
117	0xbe589990	-0.2115233
118	0xbe52d7be	-0.20590112
119	0xbdbe2f15	-0.09286324
120	0xbe465bd4	-0.19370967
121	0xbd9d1db2	-0.076716796
122	0xbe823c21	-0.254365
123	0xbe0da7a5	-0.13833483
124	0xbe783ac3	-0.24241166
125	0xbd22687e	-0.039650433
126	0xbdaa2758	-0.083082855
127	0xbd76b048	-0.06022671
128	0xbe4809a0	-0.19534922
129	0xbe3426a1	-0.17592861
130	0xbda292bd	-0.07938144
131	0xbdd97844	-0.10618642
132	0xbe6aeda7	-0.2294222
133	0xbe33d492	-0.17561558
134	0xbdbb9914	-0.09160057
135	0xbe1b8af6	-0.15189728
136	0xbdbcd130	-0.09219587
137	0xbd846651	-0.06464828
138	0xbdddbc6e	-0.10826956
139	0xbdd28bb4	-0.102805525
140	0xbe5402ce	-0.20704195
141	0xbde3c0f8	-0.1112079
142	0xbe3ba151	-0.18323256
143	0xbd440f28	-0.047866017
144	0xbe46df98	-0.19421232
145	0xbd83548d	-0.06412611
146	0xbe290ba7	-0.16508351
147	0xbd80080d	-0.062515356
148	0xbeaa5093	-0.33264598
149	0xbdf1bc66	-0.11803512
150	0xbd0ef777	-0.03490397
151	0xbd8a9630	-0.06766927
152	0xbe339ba7	-0.17539845
153	0xbe8a3e03	-0.27000436
154	0xbee976cf	-0.45598456
155	0xbe6d2123	-0.23157172
156	0xbbce5e03	-0.006297828
157	0xbe192ec7	-0.1495925
158	0xbe4b170b	-0.19833009
159	0xbe334224	-0.175057
160	0xbe4c0b51	-0.19926192
161	0xbe4bb739	-0.19894113
162	0xbe73cd4c	-0.23808783
163	0xbda8bb30	-0.08238828
164	0xbe7cd708	-0.24691403
165	0xbdea360a	-0.114360884
166	0xbe74a39d	-0.23890539
167	0xbe054880	-0.13015938
168	0xbdd4a39c	-0.103827685
169	0xbcb162e2	-0.021653596
170	0xbe970423	-0.29495344
171	0xbda1da35	-0.07902948
172	0xbdad8806	-0.0847321
173	0xbe97f9e8	-0.2968285
174	0xbdefcc04	-0.11708835
175	0xbd552be3	-0.052043807
176	0xbe598249	-0.21241106
177	0xbe8c2a1f	-0.27375886
178	0xbe1a24ad	-0.15053053
179	0xbdc40160	-0.09570575
180	0xbe297def	-0.16551946
181	0xbdc1c9bc	-0.09462306
182	0xbe1c2c3a	-0.15251246
183	0xbdffae2e	-0.12484394
184	0x3c5591ea	0.013035277
185	0xbe21d2da	-0.1580309
186	0xbe5f3dcb	-0.21800916
187	0xbe619edf	-0.22033261
188	0xbdcc7582	-0.0998335
189	0xbe1940fa	-0.14966193
190	0xbda30d89	-0.07961566
191	0xbda12257	-0.07867878
192	0xbdd8e79c	-0.10591051
193	0xbe1b981c	-0.15194744
194	0xbe9161af	-0.2839484
195	0xbcdd617c	-0.027024023
196	0xbe1c3965	-0.1525627
197	0xbdd4980c	-0.10380563
198	0xbe53f1b0	-0.20697665
199	0xbe389199	-0.18024291
200	0xbe07599e	-0.1321778
201	0xbe2ad185	-0.16681488
202	0xbe49b6a6	-0.19698581
203	0xbdfbbfae	-0.122924194
204	0xbee003d7	-0.4375293
205	0xbe711077	-0.23541437
206	0xbe6ecef3	-0.23321132
207	0xbdc2285e	-0.09480356
208	0xbe25052b	-0.16115253
209	0x3cdafc6b	0.02673169
210	0xbe3d0c96	-0.18461832
211	0xbd9bb9a4	-0.076037675
212	0xbe903f9e	-0.28173536
213	0xba3dfc54	-0.00072473777
214	0xbdd0b607	-0.10190969
215	0xbb8385bd	-0.0040137456
216	0xbe188fbf	-0.14898585
217	0xba39c5ff	-0.00070866937
218	0xbe765fa4	-0.24059922
219	0xbe295343	-0.16535668
220	0xbe8f1fbc	-0.279539
221	0xbea3e4f8	-0.32010627
222	0xbdbd3076	-0.09237759
223	0xbe2cb371	-0.16865326
224	0xbd897cd6	-0.06713264
225	0xbca5f254	-0.020257153
226	0xbe5a56b6	-0.2132214
227	0xbe796017	-0.24353062
228	0xbe352aa5	-0.17692049
229	0xbe96c3eb	-0.2944635
230	0xbd7a9ed3	-0.061186623
231	0xbeb9036f	-0.36135432
232	0xbdbe011a	-0.09277554
233	0xbe753697	-0.23946606
234	0xbdd37b8a	-0.103262976
235	0xbd8102fd	-0.06299398
236	0xbe0bb41a	-0.13642922
237	0xbeede746	-0.4646551
238	0xbe5f918f	-0.2183287
239	0xbdf2f6e6	-0.118634984
240	0xbdf37f44	-0.11889508
241	0xbdccbeaf	-0.099973075
242	0xbdbe578f	-0.09294044
243	0xbdf0ecb8	-0.117639005
244	0xbdf96a11	-0.12178434
245	0xbe44f5f3	-0.19234447
246	0xbe14bb2f	-0.1452453
247	0xbd638fb7	-0.05555698
248	0xbe09813d	-0.13428207
249	0xbd1c1aba	-0.038111426
250	0xbe07fa11	-0.13278987
251	0xbe332cb2	-0.17497519
252	0xbe4b2d22	-0.19841436
253	0xbe6a8368	-0.2290169
254	0xbe27bca2	-0.16380551
255	0xbe9e9826	-0.30975455
