example/nn_client/locomotion_nn.pth (torch, 838426 bytes, 6 tensors)

fc1.bias f4 [512]
0	0x3c6d6bfd	0.014491078
1	0x3ae19e07	0.0017213234
2	0xbc1b759d	-0.00948849
3	0xbcbe7f7a	-0.023254145
4	0x3dda523f	0.106602184
5	0xbbe6ecbb	-0.0070472634
6	0x3da40662	0.0800903
7	0x3d597e01	0.053098682
8	0x3dc815d4	0.097697884
9	0xbd1f4235	-0.0388815
10	0xbcabed8a	-0.02098729
11	0xbcf10d55	-0.029425303
12	0x3cd83173	0.026390767
13	0x3ca8ea79	0.020619618
14	0xbdd70df2	-0.10500707
15	0x3cee8da5	0.029120276
16	0xbdbcb7c6	-0.092147395
17	0x3c811f61	0.015762033
18	0x3d21e353	0.039523434
19	0x3c93eecf	0.018058209
20	0xbd856631	-0.06513632
21	0xbe1bbb41	-0.1520815
22	0x3b1f9869	0.0024352318
23	0x3e0a268d	0.13491268
24	0xbd866ae0	-0.065633535
25	0x3d645c59	0.055752132
26	0xbd182708	-0.037146598
27	0x3da978bf	0.082749836
28	0xbbce08fe	-0.006287693
29	0xbe1d880e	-0.15383932
30	0xbdadd2d2	-0.084874764
31	0x3d21b17c	0.039475903
32	0x3cab908e	0.020942952
33	0x3ce834b0	0.028345436
34	0xbc835092	-0.01602963
35	0x3d980fdc	0.074249
36	0xbd1cf4fc	-0.038319573
37	0x3c3b4143	0.011429134
38	0x3e667e99	0.2250923
39	0x3e49ec63	0.1971908
40	0xba3e0089	-0.00072480045
41	0x3d559584	0.052144542
42	0x3d4ea2bd	0.050448168
43	0x3d67e493	0.05661447
44	0xbd794c49	-0.060863767
45	0x3d4b548c	0.049641177
46	0x3d6efbae	0.05834549
47	0xbd8800de	-0.066407904
48	0x3f69a6cf	0.91270155
49	0x3c0af695	0.008481641
50	0x3da77b94	0.081778675
51	0x3e2b169b	0.16707842
52	0x3e578f25	0.21050699
53	0x3c856b6a	0.01628657
54	0xbcfbc9c4	-0.030735858
55	0x3e04d276	0.1297091
56	0xbcab6889	-0.02092387
57	0x3df46680	0.11933613
58	0xbc809173	-0.015694356
59	0xbd98f39e	-0.07468341
60	0x3daacae4	0.083394796
61	0x3dc86594	0.097849995
62	0x3d1f7dd7	0.03893837
63	0x3d276b0b	0.04087357
64	0xbd3f9432	-0.04677219
65	0xbd408494	-0.047001436
66	0x3d82db39	0.0638947
67	0xbc5c8fb0	-0.013461992
68	0x3e4f9727	0.20272504
69	0x3d15ca80	0.036570072
70	0x3c40a8b2	0.01175897
71	0xbc1dc756	-0.009630045
72	0xbd01b455	-0.03166612
73	0xbcb2dfc7	-0.021835221
74	0xbda19ee7	-0.07891636
75	0x3d8b820a	0.06811912
76	0xbd8fb165	-0.07016257
77	0x3d22836e	0.039676122
78	0x3ecd0153	0.40040073
79	0x3bb55b31	0.0055345525
80	0x3d90e086	0.070740744
81	0xbb2ce35a	-0.002638063
82	0xbdb154b5	-0.08658735
83	0x3bed2636	0.007237221
84	0xbd8706a8	-0.065930665
85	0xbb1ef098	-0.0024252292
86	0xbd7a7f7e	-0.061156742
87	0xb99e1ad6	-0.00030156103
88	0x3e2af3d4	0.16694576
89	0x3dfd482d	0.12367282
90	0x3ba0f334	0.0049118046
91	0xbca17632	-0.01970968
92	0x3d10b904	0.035332695
93	0x3d7666c9	0.060156617
94	0x3e175b79	0.14780988
95	0x3de2a1cd	0.11066017
96	0xbd0e742d	-0.034778763
97	0xbd4785cb	-0.04871158
98	0x3d08e0b3	0.033417415
99	0xbd2b6ced	-0.041851927
100	0xbe2cd6b8	-0.16878784
101	0xbd3b5585	-0.045735855
102	0xbcf67fe3	-0.030090278
103	0x3b81e9eb	0.003964653
104	0xbd588e03	-0.052869808
105	0x3c66b98c	0.014082324
106	0xbe8a3beb	-0.2699884
107	0x3dd06037	0.101746015
108	0xbd2666a7	-0.04062524
109	0xbc4049bc	-0.01173633
110	0x3e0255a8	0.12727988
111	0xbd1a37ea	-0.03765098
112	0x3d8fd037	0.07022136
113	0xbbca0ec0	-0.006166309
114	0x3d237172	0.03990311
115	0xbd57b89d	-0.052666295
116	0x3c1af2e8	0.009457327
117	0x3db346eb	0.08753761
118	0x3e3adb16	0.18247637
119	0xbce25cc0	-0.027632117
120	0x3e20ab4a	0.15690342
121	0x3ef31f9a	0.47485048
122	0x3ef3abd8	0.47592044
123	0xbd460d12	-0.04835231
124	0xbd914289	-0.07092769
125	0x3de4fd40	0.11181116
126	0x3e7ae38d	0.24500866
127	0x3b5aa83a	0.003336443
128	0x3cd0b580	0.025477171
129	0xbd249514	-0.040181234
130	0x3d8b453d	0.068003155
131	0x3ea8f6d3	0.33000812
132	0xbc2a3361	-0.010388226
133	0x3e60bed9	0.21947803
134	0x3d153221	0.03642476
135	0x3da59e12	0.0808679
136	0x3d0d123b	0.034441214
137	0xbdc8736b	-0.09787639
138	0xbd9cced8	-0.0765664
139	0x3e1751ca	0.14777294
140	0x3e1d6f28	0.15374434
141	0xbc01b110	-0.00791575
142	0xbbae312e	-0.0053159213
143	0x3dc935ae	0.09824692
144	0xbc92080f	-0.017826108
145	0x3e49dafa	0.19712439
146	0xbdfcecac	-0.12349829
147	0xbdadd962	-0.08488728
148	0x3c658edd	0.014011112
149	0x3d5ba5bc	0.053624853
150	0xbc5b210c	-0.013374578
151	0x3d9dd30c	0.077062696
152	0xbd9111db	-0.07083484
153	0x3e29804a	0.16552845
154	0x3e0db988	0.13840306
155	0x3d877771	0.066145785
156	0x3d40a253	0.047029804
157	0x3d84099c	0.06447145
158	0x3f2022a9	0.6255289
159	0x3d54b832	0.051933475
160	0xbe01387f	-0.12619208
161	0xbd0809cd	-0.03321247
162	0x3d820f1f	0.0635054
163	0x3d63b41b	0.055591684
164	0x3d2879cb	0.041131776
165	0xbde3b58d	-0.111186124
166	0xbda46847	-0.08027702
167	0xbd900c8c	-0.07033643
168	0x3cab6f3b	0.020927062
169	0xbbbae7ee	-0.0057039177
170	0xbd229fa8	-0.03970304
171	0xbba79a1a	-0.005114806
172	0x3e8c432c	0.27394998
173	0x3e663736	0.22481999
174	0xbdbdd97c	-0.092699975
175	0x3d9efd12	0.07763113
176	0xbc9f2b4e	-0.019429829
177	0x3ddde0b9	0.10833878
178	0x3ddf05db	0.10889789
179	0x3e1aec6e	0.15129253
180	0x3e03efaa	0.12884393
181	0xbd814e36	-0.06313746
182	0x3aaafc70	0.0013045203
183	0x3d378c2d	0.044811416
184	0x3e063abc	0.13108343
185	0x3ca8298d	0.020527625
186	0x3d7e8067	0.062134173
187	0x3ca2e1be	0.019883033
188	0x3da25842	0.0792699
189	0x3cfe9710	0.031077892
190	0xbbec426c	-0.0072100665
191	0x3e90222d	0.28151074
192	0xbd0f7c97	-0.035030928
193	0x3c8fbeb9	0.017546998
194	0xbdad134b	-0.084509455
195	0x3d01a1dc	0.0316485
196	0xbcdd35b8	-0.027003154
197	0xbdba0b41	-0.09084178
198	0x3cd1238f	0.025529651
199	0x3e0ec414	0.13941985
200	0xbd2b2775	-0.041785676
201	0xbcd7b589	-0.02633168
202	0xbce67562	-0.028132144
203	0xbc38d9e5	-0.011282419
204	0xbd233289	-0.039843116
205	0x3d917d1c	0.07103941
206	0x3d357038	0.044296473
207	0x3cd9080c	0.026493095
208	0x3d4178be	0.04723429
209	0x3d6f4482	0.058414944
210	0xbdfa7846	-0.122299716
211	0x3d96463b	0.07337614
212	0x3d51411d	0.051087487
213	0xbce8a324	-0.028398104
214	0xbdc3335e	-0.09531282
215	0x3e877388	0.2645533
216	0x3e2c782a	0.16842714
217	0x3ab7b801	0.001401663
218	0x3cb3a2b6	0.021928173
219	0x3a49d660	0.0007699486
220	0x3e5a1572	0.21297243
221	0xbd713f31	-0.058898155
222	0xbd439f2b	-0.047759216
223	0x3ad23e94	0.0016040378
224	0xbd8286b6	-0.0637335
225	0x3ca7a5b8	0.020464763
226	0x3e0551df	0.13019513
227	0xbd771381	-0.060321335
228	0x3d9b5c6f	0.0758599
229	0xbdc25f60	-0.094908476
230	0xbe2cabfe	-0.16862485
231	0x3e3b5d20	0.18297243
232	0x3ea1c2be	0.3159389
233	0xbd438986	-0.047738574
234	0x3c86578c	0.016399167
235	0x3ce218c2	0.027599696
236	0x3d02fbf1	0.03197855
237	0x3c374678	0.011186235
238	0x3dc1c058	0.09460515
239	0xbd6aa411	-0.057285372
240	0x3bc5baed	0.006034246
241	0xbd9dc8e8	-0.077043355
242	0xbb16e577	-0.0023024955
243	0x3d87d6ad	0.06632743
244	0x3d4e8e17	0.050428476
245	0xbb310a49	-0.0027014187
246	0xbcb51e55	-0.02210919
247	0xbba654c7	-0.005076024
248	0xbd7724c8	-0.06033781
249	0x3d4205ac	0.04736869
250	0x3d90f214	0.07077423
251	0xbccec8c6	-0.02524222
252	0xbd729b10	-0.05922991
253	0x3db23ef6	0.08703415
254	0x3dd45c0b	0.10369118
255	0x3efc6596	0.49296254

fc2.bias f4 [256]
0	0xbe0b2d0d	-0.13591404
1	0xbe4a18f7	-0.19736086
2	0xbe63fa99	-0.22263564
3	0x3d365f06	0.044524215
4	0xbe8ee746	-0.27910823
5	0xbed3283f	-0.41241643
6	0xbd169486	-0.036762737
7	0xbdfbee7a	-0.12301345
8	0xbcd1945a	-0.025583435
9	0xbe48dc70	-0.1961534
10	0xbdef3dd9	-0.116817184
11	0xbdb6313c	-0.088961095
12	0xbe40caeb	-0.18827407
13	0xbe55c278	-0.20874965
14	0xbe4d2660	-0.2003417
15	0xbe4468d0	-0.19180608
16	0xbdc95ce6	-0.09832172
17	0xbea43d77	-0.32078144
18	0xbe80046c	-0.25003374
19	0xbe96df03	-0.2946702
20	0xbe8d6659	-0.27617148
21	0xbea35872	-0.31903416
22	0xbe8cb18b	-0.27479205
23	0xbe77a519	-0.24184074
24	0xbdc416a6	-0.09574632
25	0xbe7bd9ef	-0.24594854
26	0xbe0dbe15	-0.13842042
27	0xbe2e435e	-0.17017886
28	0xbed3ec56	-0.41391248
29	0xbdbc7f2f	-0.09203946
30	0xbe01257e	-0.12611958
31	0xbd9a0320	-0.07520127
32	0xbf381a10	-0.7191477
33	0xbe56ed82	-0.2098904
34	0xbe81c8d8	-0.25348544
35	0xbea94a87	-0.33064672
36	0xbd600b4d	-0.054698277
37	0xbd3de929	-0.046364937
38	0xbdae3967	-0.085070424
39	0xbea6e626	-0.32597464
40	0xbea63077	-0.3245885
41	0xbe846e03	-0.25865182
42	0xbe4c3a60	-0.19944143
43	0xbe8db4a3	-0.27676877
44	0xbe8b7748	-0.27239442
45	0xbe263ce9	-0.16234173
46	0xbd9db695	-0.077008404
47	0xbe44b8cc	-0.1921112
48	0xbe0eb0a9	-0.13934578
49	0xbe7c8fa5	-0.24664171
50	0xbde20c95	-0.11037556
51	0xbe04d13d	-0.12970443
52	0xbd299ec4	-0.041411176
53	0xbd2b56d3	-0.04183085
54	0xbe4a263a	-0.19741145
55	0xbe938540	-0.288126
56	0xbd18dd66	-0.037320517
57	0xbea00aa9	-0.31258133
58	0xbdefd76d	-0.11711011
59	0xbd2f7b12	-0.04284198
60	0xbe6948f2	-0.22781733
61	0xbdd4445f	-0.10364603
62	0xbe2a13f0	-0.16609168
63	0xbdd6bb38	-0.10484928
64	0xbd757577	-0.059926476
65	0xbe11fe13	-0.14257078
66	0xbc6be0e5	-0.014396881
67	0xbd1a5240	-0.037676096
68	0xbb1c74e3	-0.002387338
69	0xbd6ef101	-0.058335308
70	0xbc9b81d0	-0.018982798
71	0xbe51e1a3	-0.2049623
72	0xbf13fb0e	-0.57804954
73	0xbdbfce51	-0.093655236
74	0xbe1bee0f	-0.15227531
75	0xbe1238f3	-0.14279537
76	0xbeb1ce3d	-0.3472766
77	0xbe0768c4	-0.13223559
78	0xbe4cb6de	-0.19991633
79	0xbd996e08	-0.0749169
80	0xbdf7f074	-0.1210641
81	0xbe35ad0f	-0.17741798
82	0xbda5cd05	-0.08095745
83	0xbddbcc6d	-0.107323505
84	0xbe746fc5	-0.23870762
85	0xbdaa7f10	-0.083250165
86	0xbc8c4daa	-0.017126877
87	0xbbdad189	-0.0066778106
88	0xbe5014b2	-0.20320395
89	0x3ce16b7b	0.027517071
90	0x3dd6f867	0.10496598
91	0xbd89017f	-0.066897385
92	0xbe2f5b6a	-0.17124715
93	0xbe88f5e1	-0.2675009
94	0xbe6194ed	-0.22029467
95	0xbe9a322c	-0.30116403
96	0xbe5c7887	-0.21530353
97	0xbe8dc833	-0.27691802
98	0xbdee48c8	-0.11634976
99	0xbe4c02be	-0.19922921
100	0xbd1d99dc	-0.03847681
101	0xbe1ce7aa	-0.15322748
102	0xbdae81c1	-0.08520842
103	0xbe24f6f4	-0.1610983
104	0xbecc98e8	-0.39960408
105	0xbe887d81	-0.26658252
106	0x3d85adc9	0.065272875
107	0xbe34b1cd	-0.1764595
108	0xbe30de21	-0.17272235
109	0xbe50675d	-0.2035193
110	0x3de4acde	0.11165784
111	0xbe581029	-0.21099915
112	0xbe65caa9	-0.2244059
113	0xbe6c4580	-0.23073387
114	0xbcf4c874	-0.02988074
115	0xbe5358ab	-0.20639293
116	0x3d0397a9	0.032127056
117	0xbdfcec95	-0.12349812
118	0xbe044d3b	-0.12920086
119	0xbdf526f9	-0.11970324
120	0xbdfeaf36	-0.124357626
121	0xbdb2aac1	-0.08723975
122	0xbde27168	-0.11056787
123	0xbe228c37	-0.158738
124	0xbe345ddd	-0.17613931
125	0xbe402736	-0.18764958
126	0xbe21e708	-0.15810788
127	0xbe5a2a4d	-0.21305199
128	0xbe0712cf	-0.13190769
129	0xbdc6ca4a	-0.09706552
130	0xbe3bdf88	-0.18346989
131	0xbe905607	-0.28190634
132	0xbe5da275	-0.21644004
133	0xbe278d6d	-0.16362543
134	0xbe2e9236	-0.17047963
135	0xbe36ec5f	-0.17863606
136	0xbf888189	-1.0664531
137	0xbdf7adb6	-0.120936796
138	0xbe207963	-0.15671305
139	0x3d75f40f	0.060047206
140	0xbe42f29a	-0.19037858
141	0xbdd79801	-0.10527039
142	0x3e165456	0.14680609
143	0xbdadb4eb	-0.08481773
144	0xbdeb378b	-0.11485203
145	0xbdeac656	-0.11463611
146	0xbd6fe783	-0.058570396
147	0xbe692574	-0.22768193
148	0xbe1e69dd	-0.15470071
149	0xbe404206	-0.18775186
150	0xbe2819c6	-0.16416082
151	0xbebc73d6	-0.36807126
152	0x3b8a3caa	0.0042186575
153	0xbe395218	-0.18097723
154	0xbe195e06	-0.14977273
155	0xbd9ae598	-0.07563323
156	0xbe01360a	-0.1261827
157	0xbd9ba0c4	-0.07599023
158	0xbec0c8ef	-0.376533
159	0xbe4477a6	-0.19186267
160	0xbe13630f	-0.14393257
161	0xbb197829	-0.0023417568
162	0xbe08fa17	-0.13376652
163	0xbe3ad18b	-0.18243997
164	0x3c89f0fe	0.016838547
165	0xbd0682ea	-0.032839693
166	0xbca0fbc2	-0.019651297
167	0xbe45c8b2	-0.1931484
168	0xbe49078b	-0.19631784
169	0xbd612b9a	-0.054973222
170	0xbdb3bd02	-0.08776285
171	0xbe188d01	-0.14897539
172	0xbea17f0f	-0.3154225
173	0xbe24c43f	-0.16090487
174	0xbd816114	-0.06317344
175	0xbe7ef692	-0.24898747
176	0xbe4f34d8	-0.20235002
177	0xbda37d4d	-0.079828836
178	0xbe647c91	-0.22313143
179	0x3bc01972	0.0058624083
180	0xbdc9950d	-0.09842882
181	0xbe0cf8e2	-0.13766816
182	0xbd4f6d58	-0.050641388
183	0xbedf562f	-0.4362044
184	0xbdbd4a0f	-0.09242641
185	0xbd8e9e65	-0.06963805
186	0xbd3d6e6e	-0.046247892
187	0xbc9767ee	-0.018482175
188	0xbf02f9e3	-0.51162547
189	0xbe02d161	-0.12775184
190	0x3d4f442e	0.05060213
191	0xbdb8308d	-0.08993635
192	0xbda56a96	-0.0807697
193	0xbeeb3ec2	-0.45946318
194	0xbd5c6697	-0.053808775
195	0xbe654694	-0.22390205
196	0xbdedc78b	-0.116103254
197	0xbd9baf3c	-0.07601783
198	0xbe6d2523	-0.23158698
199	0xbda5cb02	-0.08095361
200	0xbe10ba52	-0.14133576
201	0xbe9c2bed	-0.30502263
202	0xbdf8099e	-0.12111209
203	0xbe7669c0	-0.24063778
204	0xbe406aa9	-0.18790688
205	0xbf176db7	-0.59151787
206	0x3dd7c7fe	0.10536192
207	0xbdac7403	-0.08420565
208	0xbcc8f96d	-0.024532998
209	0xbe939ffb	-0.28832993
210	0xbdd9b3c6	-0.10629992
211	0xbe96f1d8	-0.29481387
212	0xbb9c05c7	-0.004761431
213	0xbe2b4c4b	-0.16728322
214	0xbe32b587	-0.1745206
215	0xbe65920e	-0.22418997
216	0x3ccdf0de	0.025139268
217	0x3ce3b2b6	0.027795177
218	0xbe5f9ffd	-0.21838374
219	0xbde1a794	-0.11018291
220	0xbf231bd2	-0.63714325
221	0x3b73d2af	0.0037204435
222	0xbcfadad7	-0.03062193
223	0xbdae91d9	-0.08523912
224	0xbdc8478d	-0.09779272
225	0xbe826860	-0.25470257
226	0x3dd9a09c	0.10626337
227	0x3d20aeae	0.039229088
228	0x3ba31638	0.004977014
229	0xbde73668	-0.11289674
230	0xbd9afded	-0.07567964
231	0xbe5554b6	-0.20833096
232	0xbe71f6bd	-0.2362928
233	0xbd9f4989	-0.077776976
234	0xbdc9fac3	-0.09862282
235	0xbe90417a	-0.28174955
236	0xbe9abd91	-0.30222753
237	0xbe8ad5ae	-0.2711615
238	0xbd49ad8a	-0.049237765
239	0xbe9c9dff	-0.3058929
240	0xbd97fa26	-0.07420759
241	0xbdf62730	-0.12019193
242	0xbe196ce6	-0.14982948
243	0xbdadc617	-0.08485048
244	0x3d18b23e	0.03727936
245	0x3ca439fd	0.020047182
246	0xbf167ef5	-0.5878747
247	0xbeb366df	-0.35039422
248	0xbe2b5869	-0.16732945
249	0xbdafe910	-0.08589375
250	0xbe49b303	-0.19697194
251	0xbe093ffa	-0.13403311
252	0xbba07951	-0.0048972745
253	0xbe1754dc	-0.14778465
254	0xbef362f4	-0.47536433
255	0xbd7d2cdd	-0.061810363

fc3.bias f4 [128]
0	0xbdcec7cb	-0.10096701
1	0xbe1b61a1	-0.15173961
2	0xbe116bf1	-0.14201333
3	0xbd9b2178	-0.07574743
4	0xbdf94339	-0.12171025
5	0xbe5d9e7b	-0.21642487
6	0xbe32122c	-0.17389745
7	0xbd7ac2e1	-0.061221007
8	0xbefce372	-0.49392277
9	0xbdec2216	-0.11529939
10	0xbe6982c0	-0.22803783
11	0xbdf7f4fe	-0.121072754
12	0xbe20ae4c	-0.15691489
13	0xbe731140	-0.23737049
14	0xbe497f53	-0.19677477
15	0xbe38943a	-0.18025294
16	0xbf7aaa8b	-0.9791648
17	0xbdf15058	-0.117829025
18	0xbc9cda1d	-0.019146973
19	0xbdc81015	-0.097686924
20	0xbe66567e	-0.22493932
21	0xbdd0842b	-0.10181459
22	0xbe087179	-0.13324536
23	0xbec85e6f	-0.39134547
24	0xbe72b2bc	-0.23700994
25	0xbdde48bf	-0.10853719
26	0xbeabb977	-0.33539936
27	0xbe08848a	-0.1333181
28	0xbe6788d1	-0.22610785
29	0xbdbf64b7	-0.09345382
30	0xbe6bffda	-0.23046818
31	0xbe0d7dba	-0.13817492
32	0xbdb387de	-0.08766149
33	0xbe06721c	-0.13129467
34	0xbdcd4a15	-0.10023896
35	0xbdb3837b	-0.08765312
36	0xbd8edad5	-0.06975333
37	0xbe728876	-0.23684868
38	0xbfa48ed1	-1.2856084
39	0xbe225554	-0.15852863
40	0xbe32fa37	-0.17478262
41	0xbde5de77	-0.112240724
42	0xbe0183a1	-0.12647869
43	0x3a759c3c	0.0009369289
44	0xbdf714da	-0.12064524
45	0xbe2df024	-0.16986138
46	0xbe36d702	-0.17855456
47	0xbe08e5a6	-0.13368854
48	0xbe676f70	-0.22601104
49	0xbd8c003a	-0.06835981
50	0xbde715e2	-0.11283471
51	0xbed388e7	-0.41315386
52	0xbea5f986	-0.32416934
53	0xbe23e150	-0.16003919
54	0xbe063583	-0.1310635
55	0x3c73e561	0.014886231
56	0xbeb27356	-0.3485362
57	0xbe3bd783	-0.1834393
58	0xbd6babff	-0.057537075
59	0xbdbd4a29	-0.092426606
60	0xbe15db3f	-0.14634417
61	0xbe177729	-0.1479155
62	0xbe4d90c4	-0.20074755
63	0xbdc05bfd	-0.09392545
64	0xbde0632e	-0.10956417
65	0xbd937c2b	-0.072014175
66	0xbdd963f0	-0.10614765
67	0xbdd60b20	-0.10451341
68	0xbe1d3984	-0.15353972
69	0xbe04e08f	-0.12976287
70	0xbdd9ed53	-0.10640969
71	0xbe3e1e82	-0.18566325
72	0xbe012765	-0.12612684
73	0xbe0ed2fd	-0.13947673
74	0xbe0aba29	-0.13547577
75	0xbe0ae75c	-0.13564819
76	0xbd9f4608	-0.07777029
77	0xbe3656e7	-0.17806588
78	0xbe29e094	-0.16589576
79	0xbe180244	-0.14844614
80	0xbc653b58	-0.013991199
81	0xbe1548c4	-0.14578539
82	0xbde91274	-0.11380473
83	0xbdeec4c5	-0.116586246
84	0xbe40671e	-0.18789336
85	0xbe9ffaf6	-0.31246156
86	0xbdecd81c	-0.11564657
87	0xbcc88eca	-0.02448215
88	0xbe0eede2	-0.13957933
89	0xbe2324e7	-0.15932046
90	0xbe27123c	-0.1631555
91	0xbe0b7a74	-0.13620931
92	0xbf1c4f33	-0.6105835
93	0xbef7eed7	-0.48424408
94	0xbe239857	-0.15976082
95	0xbe84b5c9	-0.2591994
96	0xbe35c1de	-0.17749736
97	0xbddfe55a	-0.10932417
98	0xbe4c4418	-0.1994785
99	0xbdf62af9	-0.12019915
100	0xbea9c540	-0.33158302
101	0xbe1a9b50	-0.1509831
102	0xbe878be4	-0.26473916
103	0xbe66ee57	-0.22551857
104	0xbe84a447	-0.25906584
105	0xbdda60b4	-0.10662976
106	0xbe63e169	-0.22253956
107	0xbd9a9a37	-0.075489454
108	0xbe11febb	-0.14257328
109	0xbdfab1da	-0.12240954
110	0xbf04f906	-0.5194248
111	0xbd1830f5	-0.037156064
112	0xbd95ef60	-0.07321048
113	0xbe554c06	-0.20829782
114	0xbe0f9238	-0.14020622
115	0xbe9a4600	-0.3013153
116	0xbeed5aab	-0.46358237
117	0xbdd439f3	-0.103626154
118	0xbe35e7cf	-0.17764209
119	0xbda38f32	-0.07986297
120	0xbd9c9f02	-0.07647516
121	0xbe3a2813	-0.1817935
122	0xbe16c0c3	-0.1472197
123	0xbd952bdd	-0.07283757
124	0xbe151e2a	-0.14562288
125	0xbde3aa33	-0.11116447
126	0xbe0a8868	-0.13528597
127	0xbf31d5f5	-0.694671

fc4.bias f4 [23]
0	0x3c02263d	0.007943687
1	0x3c86a56c	0.016436301
2	0xbcb102ae	-0.021607723
3	0xbcbce0cd	-0.023056412
4	0x390a5aac	0.00013194483
5	0x3d26e101	0.040741924
6	0x3be3c69f	0.0069511677
7	0xbb43dad4	-0.002988507
8	0xbd0eae94	-0.03483446
9	0xbd440fde	-0.047866695
10	0xbcb72fbb	-0.022361627
11	0xbd9f84d5	-0.077890076
12	0xbe1e7625	-0.15474756
13	0xbd98f758	-0.07469052
14	0xbe49f42a	-0.19722047
15	0x3e2bd08a	0.1677877
16	0xbe9426fd	-0.28935996
17	0x3dd5fb72	0.1044835
18	0x3e258dd0	0.16167378
19	0x3cdfe594	0.027331151
20	0x3e53cabf	0.2068281
21	0xbd7756f5	-0.060385663
22	0x3e1e5c90	0.15464997

layer_norm.weight f4 [512]
0	0x3ecf0507	0.40433523
1	0x3ee8c55f	0.45463082
2	0x3fe76bc3	1.8079761
3	0x3f4cd2c5	0.8000911
4	0x3ece36f1	0.40276292
5	0x3f8f2340	1.1182632
6	0x3eebe668	0.46074224
7	0x3ecb6ae2	0.39729983
8	0x3e8544fa	0.26029187
9	0x3f81ffa6	1.0156143
10	0x3f9a412b	1.2051138
11	0x3f99e47f	1.2022856
12	0x3fced1cb	1.6157774
13	0x3f207865	0.6268371
14	0x3f8e50f0	1.111845
15	0x3f4bf304	0.7966769
16	0x3fafa00e	1.372072
17	0x3f80c17b	1.0059046
18	0x3f948fb0	1.160635
19	0x3f2e9d67	0.68208927
20	0x3f8dfa65	1.1092039
21	0x3fb2ec92	1.3978446
22	0x3fc528df	1.5403098
23	0x3eae9e5e	0.341052
24	0x3f89c0c6	1.0761955
25	0x3f57ee23	0.8434774
26	0x3f9d8a17	1.2307767
27	0x3fbb4470	1.463026
28	0x3f0daac5	0.553387
29	0x4002abdf	2.0417402
30	0x3fc0594d	1.5027252
31	0x3fb21bdb	1.3914751
32	0x3f8d9e4d	1.1063935
33	0x3f6c6736	0.9234499
34	0x3fb0a7f8	1.380126
35	0x3e91337a	0.28359586
36	0x3fc6e8eb	1.5539831
37	0x3fdcfc94	1.7264581
38	0x3e599a4b	0.21250264
39	0x3e0de114	0.13855392
40	0x3fbf49ee	1.4944437
41	0x3f18fe83	0.59763354
42	0x3ef97594	0.48722517
43	0x3fd94ab7	1.6975926
44	0x3f9dc5f4	1.2326035
45	0x3f856700	1.0422058
46	0x3e50be44	0.2038508
47	0x3fd558af	1.6667689
48	0x3d780795	0.060554106
49	0x3feb2a04	1.8372197
50	0x3f92817b	1.1445764
51	0x3ed61e50	0.41820002
52	0x3e816e9b	0.25279698
53	0x3f817a86	1.0115516
54	0x3fca62f1	1.5811445
55	0x3e8af303	0.27138528
56	0x3ea8a6b5	0.32939687
57	0x3ebe487c	0.37164676
58	0x3f906d39	1.1283332
59	0x3ff90b85	1.945664
60	0x3f954af7	1.1663502
61	0x3e9d231d	0.30690852
62	0x3ee03fdc	0.4379872
63	0x3f618ebf	0.8810844
64	0x40058ba1	2.0866473
65	0x40119c25	2.2751553
66	0x3ec216f6	0.37908143
67	0x3fb1159b	1.3834718
68	0x3e465c6d	0.19371195
69	0x3fefb3fa	1.87268
70	0x3f9cc7b6	1.2248447
71	0x3fb7bb37	1.4354008
72	0x3fc72a7a	1.5559838
73	0x3f89eb82	1.0774996
74	0x3fa6690f	1.3000811
75	0x3fb04419	1.3770782
76	0x3fbea338	1.489356
77	0x3fc71a2a	1.555486
78	0x3e2a785c	0.16647476
79	0x3fb3a053	1.4033302
80	0x40149aef	2.3219564
81	0x3faa58c1	1.3308336
82	0x3ffdc2ef	1.9825114
83	0x3fa92ca9	1.3216754
84	0x3fecdf4c	1.8505645
85	0x3f5d2641	0.86386496
86	0x3f2d6363	0.6772978
87	0x3ecbd0f8	0.39807868
88	0x3e5080ce	0.20361635
89	0x3e97c58e	0.2964291
90	0x3fbffb10	1.4998493
91	0x3ff1d3f9	1.8892814
92	0x3f795fd7	0.97411865
93	0x3f290e05	0.6603702
94	0x3d0c9536	0.034321986
95	0x3eac7037	0.33679363
96	0x3f9be069	1.217786
97	0x3fcbbc76	1.5916889
98	0x3e94bd35	0.29050604
99	0x3f9b013b	1.210975
100	0x3fd4a4e8	1.6612825
101	0x3fc54734	1.5412354
102	0x3f2b6495	0.6695035
103	0x3f924a48	1.1428919
104	0x3fa89a78	1.317214
105	0x3f05de45	0.5229228
106	0x3fd3cd87	1.6547097
107	0x3d073280	0.033007145
108	0x3fa78126	1.3086288
109	0x3f8ece8c	1.1156783
110	0x3e851f45	0.2600042
111	0x3fa2ebbb	1.2728189
112	0x3f4cca67	0.7999634
113	0x3fcc6ee7	1.5971345
114	0x3f4a360f	0.78988737
115	0x3fd00f54	1.6254678
116	0x3f307d06	0.6894077
117	0x3f0f0dc9	0.5588041
118	0x3e341591	0.17586352
119	0x3f995d42	1.1981585
120	0x3e795069	0.2434708
121	0x3e1a7b2d	0.1508605
122	0x3e37e8ef	0.17959951
123	0x3fb9f049	1.4526454
124	0x3fa5170a	1.2897656
125	0x3f0099d8	0.50234747
126	0x3e3d912f	0.18512414
127	0x3f25adae	0.6471814
128	0x3ed84d62	0.42246538
129	0x3f64be2e	0.8935269
130	0x3f99b1fe	1.2007444
131	0x3e5efc3d	0.21775909
132	0x3f9bedc9	1.2181941
133	0x3e05db89	0.13072027
134	0x3fb0f9e9	1.3826267
135	0x3eb260d2	0.34839493
136	0x3efcf799	0.49407652
137	0x3fbc8dd4	1.4730783
138	0x3fa641db	1.2988847
139	0x3e6b4e86	0.22979173
140	0x3ed11491	0.40836003
141	0x3fac9b03	1.3484806
142	0x3fcf5b94	1.6199822
143	0x3e1bfbea	0.15232816
144	0x3f354bac	0.7081859
145	0x3e876c63	0.2644988
146	0x3fea7caf	1.83193
147	0x3ffa7f70	1.9570141
148	0x3f6928c2	0.91077816
149	0x3fbeebe3	1.4915737
150	0x3fac1f77	1.3447102
151	0x3ed7322d	0.4203047
152	0x3f8ea349	1.1143581
153	0x3e98ece1	0.29868224
154	0x3e753b8c	0.23948497
155	0x3f890d84	1.070725
156	0x3eea87d5	0.45806757
157	0x3f31617a	0.6928936
158	0x3db15c65	0.08660201
159	0x3edb6102	0.4284745
160	0x3fd2d7ed	1.6472145
161	0x3f879d9b	1.0594972
162	0x3e8860dc	0.26636398
163	0x3f003007	0.50073284
164	0x3f3929e3	0.7232954
165	0x400ffbf6	2.2497535
166	0x3ff5796a	1.9177678
167	0x3ff23a3d	1.8924023
168	0x3fcc826d	1.5977303
169	0x3fb40b5a	1.4065964
170	0x3fa490ad	1.2856652
171	0x3f7a551a	0.97786105
172	0x3e6a1312	0.22858837
173	0x3e7ccb1c	0.24686855
174	0x3f750833	0.95715636
175	0x3e9f27a6	0.31084937
176	0x3f913a47	1.134591
177	0x3e30ac36	0.17253193
178	0x3e677028	0.22601378
179	0x3ded95a2	0.11600806
180	0x3e92c54c	0.2866615
181	0x3fb5eb13	1.4212364
182	0x3fcf5290	1.6197071
183	0x3f2d9417	0.6780409
184	0x3d0e96a5	0.034811635
185	0x3f5c71c8	0.86111116
186	0x3fb27295	1.3941218
187	0x3fb40a65	1.4065672
188	0x3f41f37e	0.75762165
189	0x3f298321	0.6621571
190	0x3fae2b09	1.3606883
191	0x3e90199e	0.28144544
192	0x3f9fff40	1.2499771
193	0x3f8b4c4b	1.0882658
194	0x3ff5c635	1.9201113
195	0x3f97e53b	1.186683
196	0x3fb5ded8	1.4208632
197	0x3fa76fd3	1.3081001
198	0x3ea59778	0.32342124
199	0x3e1e842d	0.15480109
200	0x3f91ef7e	1.1401212
201	0x3fa6e226	1.3037765
202	0x3fc8d757	1.5690717
203	0x3fa078a2	1.2536814
204	0x3f993312	1.196871
205	0x3eb627b9	0.3557718
206	0x3fb90e29	1.4457446
207	0x3f88ab61	1.0677301
208	0x3eddd56e	0.43326896
209	0x3fdb5244	1.713448
210	0x3fd217fd	1.6413571
211	0x3f65e4f8	0.89802504
212	0x3ea5db36	0.32393807
213	0x3fa54a1e	1.2913244
214	0x3fd608a3	1.6721386
215	0x3e43db42	0.19126609
216	0x3e743406	0.2384797
217	0x3fb5a52c	1.4191031
218	0x3f4bbeaa	0.79587805
219	0x3f934d99	1.1508056
220	0x3e8bebfe	0.27328485
221	0x3f83a015	1.0283228
222	0x3fa4c44d	1.2872406
223	0x3f32484d	0.6964157
224	0x3fd0a64f	1.6300753
225	0x3f852f0f	1.0404986
226	0x3ed1e653	0.40996036
227	0x3f97a5fc	1.184753
228	0x3e8c96b6	0.27458733
229	0x40039b0c	2.0563383
230	0x3f9b662d	1.2140557
231	0x3e48465d	0.19558091
232	0x3e4672d1	0.19379736
233	0x3fd689ab	1.6760763
234	0x3fa29bd1	1.2703801
235	0x3f458e82	0.77170575
236	0x3fafe4fd	1.3741757
237	0x3f168270	0.5879278
238	0x3ee443c6	0.44582957
239	0x3fc517fd	1.5397946
240	0x3fc132c9	1.5093623
241	0x3f8c8bdb	1.098018
242	0x3f9bc860	1.2170525
243	0x3ef3dd1a	0.47629625
244	0x3f379851	0.7171679
245	0x3f9fdb82	1.2488863
246	0x3f5b0eae	0.85569274
247	0x3e8140e4	0.2524482
248	0x3fd3c955	1.6545817
249	0x3f3db359	0.7410179
250	0x3f69ba70	0.91300106
251	0x3f906c33	1.128302
252	0x3fe08f3e	1.7543714
253	0x3f882e99	1.063922
254	0x3e5e6397	0.21717678
255	0x3e0eb852	0.139375

layer_norm.bias f4 [512]
0	0xbe16c6e6	-0.14724311
1	0xbe028e1f	-0.12749527
2	0xbe5b2b55	-0.21403249
3	0xbe65841c	-0.22413677
4	0xbeb1e47a	-0.34744626
5	0xbdb3ee84	-0.087857276
6	0xbe2a84df	-0.16652249
7	0xbdcfc253	-0.10144486
8	0xbd70a5ec	-0.058751985
9	0xbe671d59	-0.22569789
10	0x3be6271a	0.0070237042
11	0xbe4ac3ab	-0.19801204
12	0xbde43a79	-0.11143965
13	0xbdfd4fbe	-0.12368725
14	0xbe870b64	-0.26375878
15	0xbe14fff4	-0.14550763
16	0xbe72da8a	-0.23716179
17	0xbe858fec	-0.26086366
18	0xbea6bc7a	-0.3256567
19	0xbe668d82	-0.22514918
20	0xbe2c51e8	-0.1682812
21	0xbd9468c6	-0.072465464
22	0xbe20f9e1	-0.15720321
23	0xbd905290	-0.070469975
24	0xbe28699a	-0.16446534
25	0xbde22ce0	-0.110437155
26	0xbe76a96d	-0.24088068
27	0xbd80494a	-0.06263979
28	0xbd7dd115	-0.061966974
29	0xbe3709ec	-0.17874879
30	0xbde1abf1	-0.11019123
31	0xbe2bbc9f	-0.16771172
32	0xbe05dc85	-0.13072403
33	0xbe043181	-0.12909509
34	0xbde4b318	-0.11166972
35	0xbe33b07b	-0.1754779
36	0xbe26ba60	-0.16282034
37	0xbe0b264f	-0.13588832
38	0xbe1e4252	-0.15454987
39	0xbdbdd64b	-0.09269389
40	0xbe300578	-0.17189586
41	0xbdfc76a0	-0.123273134
42	0xbe6d16aa	-0.23153177
43	0xbde845f5	-0.11341468
44	0xbe0a781d	-0.13522382
45	0xbd2b55f3	-0.041830014
46	0xbdd87404	-0.10569003
47	0xbd8cfa28	-0.06883651
48	0xbf01f7ce	-0.50768745
49	0xbda19f20	-0.07891679
50	0xbda00d4e	-0.07815038
51	0xbe8c5e99	-0.27415922
52	0xbedc7e4b	-0.43065104
53	0xbe01d833	-0.1268013
54	0xbe62f45e	-0.22163531
55	0xbe006645	-0.12539013
56	0xbd7dc825	-0.06195845
57	0xbdd1e063	-0.102478765
58	0xbe2af863	-0.16696315
59	0xbd252329	-0.040316734
60	0x3d540e05	0.051771183
61	0xbe5316be	-0.20614144
62	0xbddfa8cb	-0.109208666
63	0xbe6e3a2d	-0.2326438
64	0xbd385d77	-0.04501101
65	0x3e434a70	0.19071364
66	0xbd3d9247	-0.04628208
67	0xbe872ae7	-0.2639992
68	0xbe3d22a1	-0.18470241
69	0xbe1680c7	-0.14697562
70	0xbd9a87ce	-0.07545434
71	0xbe8b7bc7	-0.27242872
72	0xbc323935	-0.010877897
73	0xbe0d4a12	-0.13797787
74	0xbe41f55d	-0.18941255
75	0xbdd5572a	-0.10417016
76	0xbe01d7b7	-0.12679945
77	0xbe1eee8f	-0.1552069
78	0xbf1fe27c	-0.6245496
79	0xbdd8bdb8	-0.10583061
80	0xbdf9e74b	-0.12202319
81	0xbe040954	-0.12894183
82	0xbe15e8d8	-0.14639604
83	0xbdfa7aa6	-0.122304246
84	0xbe9008be	-0.2813167
85	0xbe03c263	-0.12867121
86	0xbe2ff290	-0.17182374
87	0xbe84e0bf	-0.25952718
88	0xbe033f7a	-0.12817183
89	0xbd11a113	-0.035554003
90	0xbdf31073	-0.11868372
91	0xbe2da14e	-0.16956064
92	0xbd8b3bff	-0.06798553
93	0xbe075f22	-0.13219884
94	0xbbe76fa1	-0.0070628677
95	0xbe535d1c	-0.20640987
96	0xbd3ef04c	-0.046615884
97	0xbe364672	-0.1780031
98	0xbe09d0ac	-0.13458508
99	0xbd27b0c3	-0.040940057
100	0xbe16fdda	-0.14745274
101	0xbdb409f8	-0.08790964
102	0xbe43a677	-0.1910647
103	0xbe02014b	-0.12695806
104	0xbde3d27e	-0.111241326
105	0xbe56ef7b	-0.20989792
106	0x3e3af3cf	0.18257068
107	0x3cf6d24d	0.030129576
108	0xbdcb248b	-0.099190794
109	0xbe1026f3	-0.14077358
110	0xbe8eda26	-0.2790081
111	0xbdceaa2d	-0.10091052
112	0xbe5d9858	-0.21640146
113	0xbe3a3d78	-0.18187511
114	0xbe4515b3	-0.19246559
115	0xbe885e97	-0.26634666
116	0xbe02d9cf	-0.127784
117	0xbe21dfd5	-0.15808041
118	0xbdf5edc7	-0.12008243
119	0xbe1aef74	-0.15130407
120	0xbeb3ec63	-0.35141286
121	0xbee77395	-0.4520537
122	0xbf0e1e2e	-0.555148
123	0xbdaa863b	-0.08326384
124	0xbe1a55ff	-0.15071867
125	0xbe0a3ebb	-0.13500492
126	0xbebe9d2a	-0.37229282
127	0xbe478b90	-0.19486833
128	0xbe0d4594	-0.13796073
129	0xbe74e698	-0.2391609
130	0xbd60a356	-0.05484327
131	0xbed96e15	-0.42466798
132	0xbe3544df	-0.17702053
133	0xbd99d770	-0.075117946
134	0xbe361388	-0.17780888
135	0xbe1b8617	-0.1518787
136	0xbddddf37	-0.108335905
137	0xbe217ccf	-0.15770267
138	0xbe209a1a	-0.15683785
139	0xbe187d76	-0.1489161
140	0xbea5b38b	-0.32363543
141	0xbddd5376	-0.108069345
142	0xbdbfcfc4	-0.093658
143	0xbd8e1f82	-0.069396034
144	0xbe171d75	-0.1475733
145	0xbe1d4864	-0.15359646
146	0xbe1a38cf	-0.15060733
147	0xbd6b0d20	-0.057385564
148	0xbe960a5b	-0.29304776
149	0xbe0e0d56	-0.13872275
150	0xbd9d6f0b	-0.076871954
151	0xbde500b7	-0.11181777
152	0xbe8f1bf7	-0.27951023
153	0xbe9f916c	-0.31165636
154	0xbeed21b1	-0.46314767
155	0xbe375ffa	-0.17907706
156	0xbd36d847	-0.044639852
157	0xbe97d5bf	-0.29655263
158	0xbef5e357	-0.4802501
159	0xbe9cd486	-0.30630893
160	0xbe0f2424	-0.1397863
161	0xbe49a254	-0.1969083
162	0xbe16609c	-0.14685291
163	0xbd4914a5	-0.049091954
164	0xbdf439ab	-0.11925062
165	0xbe832af3	-0.25618705
166	0xbde815ac	-0.113322586
167	0xbdce9339	-0.10086674
168	0xbe62719f	-0.22113656
169	0xbe39cb74	-0.18144017
170	0xbe02a3e5	-0.12757833
171	0xbdeeecbc	-0.11666247
172	0xbe108924	-0.14114815
173	0xbeb518b3	-0.35370407
174	0xbe49a8f2	-0.19693354
175	0xbdd37e40	-0.10326815
176	0xbe76c6bd	-0.2409925
177	0xbdf6814b	-0.120363794
178	0xbe3b3ddb	-0.18285315
179	0xbdd89e76	-0.10577099
180	0xbe19ae60	-0.15007925
181	0xbe8d875d	-0.27642336
182	0xbde3b0ff	-0.11117744
183	0xbdf99b46	-0.12187819
184	0x3b66db85	0.0035226059
185	0xbded73f4	-0.11594382
186	0xbe6afb3f	-0.22947405
187	0xbde66a59	-0.11250753
188	0x3ca4099e	0.020024117
189	0xbe0a015a	-0.13477078
190	0x3d96d87f	0.07365512
191	0xbec5f34f	-0.38662192
192	0xbe4a7bf0	-0.19773841
193	0xbe11aec3	-0.14226823
194	0xbe011e50	-0.1260922
195	0xbe02fafc	-0.12791055
196	0xbdcef2ec	-0.101049274
197	0xbe7587b0	-0.23977542
198	0xbe18209d	-0.14856191
199	0xbdb0b156	-0.08627574
200	0xbe600c5c	-0.21879715
201	0xbe9ac781	-0.30230334
202	0xbc4c3797	-0.0124644255
203	0xbe088c7e	-0.13334844
204	0xbe67a4b5	-0.22621424
205	0xbe7b2030	-0.24523997
206	0xbe3cf1de	-0.1845164
207	0xbe4ebc2d	-0.20188971
208	0xbe2a098c	-0.16605204
209	0xbe0e5163	-0.13898234
210	0xbe04b92c	-0.12961262
211	0xbd5d7db8	-0.054074973
212	0xbea8bab6	-0.3295495
213	0xbdcdb9be	-0.10045193
214	0xbda6eeaf	-0.08150994
215	0xbee7f787	-0.45306036
216	0xbe99a4ca	-0.30008537
217	0xbc0b2eab	-0.008495013
218	0xbe95e773	-0.29278144
219	0xbe619ed0	-0.22033238
220	0xbe9d48ca	-0.30719596
221	0xbe629d45	-0.22130306
222	0xbe512c02	-0.20426944
223	0xbe3d5534	-0.18489534
224	0xbe2af599	-0.1669525
225	0xbe46bff3	-0.1940916
226	0xbe4f1d2b	-0.2022597
227	0xbe1b33c6	-0.15156469
228	0xbe0d8f4d	-0.13824196
229	0xbe9ad25f	-0.30238625
230	0x3de00b71	0.10939682
231	0xbd2c0d34	-0.04200478
232	0xbef3ef9d	-0.47643748
233	0xbe1af5ef	-0.15132879
234	0xbe544a8a	-0.2073156
235	0xbdc87a28	-0.097889245
236	0xbe0ef80f	-0.13961814
237	0xbe6f98a2	-0.23398069
238	0xbe8e138b	-0.27749285
239	0xbe466685	-0.19375046
240	0xbdc0af62	-0.094084516
241	0xbe106682	-0.14101604
242	0xbe3e5960	-0.18588781
243	0xbe52e191	-0.2059386
244	0xbdc5bd29	-0.0965522
245	0xbda4938b	-0.08035954
246	0xbdb6ccf0	-0.089258075
247	0xbd5295b1	-0.051412288
248	0xbe395cce	-0.18101808
249	0xbdb4b2a3	-0.08823135
250	0xbe0a6059	-0.13513316
251	0xbe69999a	-0.228125
252	0xbe11ea6f	-0.14249586
253	0xbe135488	-0.14387715
254	0xbcf87de9	-0.030333476
255	0xbf144a5a	-0.5792595
